…
      (layers): ModuleList(
        (0): GraphTransformerEncoderLayer(
          (self_attn): GraphSelfAttention(
            (attention_0): GraphAttentionLayer(
              (leakyrelu): LeakyReLU(negative_slope=0.1)
            )
            (attention_1): GraphAttentionLayer(
              (leakyrelu): LeakyReLU(negative_slope=0.1)
            )
            (attention_2): GraphAttentionLayer(
              (leakyrelu): LeakyReLU(negative_slope=0.1)
            )
            (attention_3): GraphAttentionLayer(
              (leakyrelu): LeakyReLU(negative_slope=0.1)
            )
            (linear): Linear(in_features=256, out_features=256, bias=True)
            (graph_self_attn): MultiheadAttention(
              (out_proj): Linear(in_features=256, out_features=256, bias=True)
            )
            (norm1): Norm(
              (norm): BatchNorm1d(256, eps=1e-05, momentum=0.1, affine=True, track_running_stats=True)
            )
            (norm2): Norm(
              (norm): BatchNorm1d(256, eps=1e-05, momentum=0.1, affine=True, track_running_stats=True)
            )
          )
          (linear1): Linear(in_features=256, out_features=1024, bias=True)
          (dropout): Dropout(p=0.0, inplace=False)
          (linear2): Linear(in_features=1024, out_features=256, bias=True)
          (norm1): LayerNorm((256,), eps=1e-05, elementwise_affine=True)
          (norm2): LayerNorm((256,), eps=1e-05, elementwise_affine=True)
          (dropout1): Dropout(p=0.0, inplace=False)
          (dropout2): Dropout(p=0.0, inplace=False)
        )
        (1): GraphTransformerEncoderLayer(
          (self_attn): GraphSelfAttention(
            (attention_0): GraphAttentionLayer(
              (leakyrelu): LeakyReLU(negative_slope=0.1)
            )
            (attention_1): GraphAttentionLayer(
              (leakyrelu): LeakyReLU(negative_slope=0.1)
            )
            (attention_2): GraphAttentionLayer(
              (leakyrelu): LeakyReLU(negative_slope=0.1)
            )
            (attention_3): GraphAttentionLayer(
              (leakyrelu): LeakyReLU(negative_slope=0.1)
            )
            (linear): Linear(in_features=256, out_features=256, bias=True)
            (graph_self_attn): MultiheadAttention(
              (out_proj): Linear(in_features=256, out_features=256, bias=True)
            )
            (norm1): Norm(
              (norm): BatchNorm1d(256, eps=1e-05, momentum=0.1, affine=True, track_running_stats=True)
            )
            (norm2): Norm(
              (norm): BatchNorm1d(256, eps=1e-05, momentum=0.1, affine=True, track_running_stats=True)
            )
          )
          (linear1): Linear(in_features=256, out_features=1024, bias=True)
          (dropout): Dropout(p=0.0, inplace=False)
          (linear2): Linear(in_features=1024, out_features=256, bias=True)
          (norm1): LayerNorm((256,), eps=1e-05, elementwise_affine=True)
          (norm2): LayerNorm((256,), eps=1e-05, elementwise_affine=True)
          (dropout1): Dropout(p=0.0, inplace=False)
          (dropout2): Dropout(p=0.0, inplace=False)
        )
        (2): GraphTransformerEncoderLayer(
          (self_attn): GraphSelfAttention(
            (attention_0): GraphAttentionLayer(
              (leakyrelu): LeakyReLU(negative_slope=0.1)
            )
            (attention_1): GraphAttentionLayer(
              (leakyrelu): LeakyReLU(negative_slope=0.1)
            )
            (attention_2): GraphAttentionLayer(
              (leakyrelu): LeakyReLU(negative_slope=0.1)
            )
            (attention_3): GraphAttentionLayer(
              (leakyrelu): LeakyReLU(negative_slope=0.1)
            )
            (linear): Linear(in_features=256, out_features=256, bias=True)
            (graph_self_attn): MultiheadAttention(
              (out_proj): Linear(in_features=256, out_features=256, bias=True)
            )
            (norm1): Norm(
              (norm): BatchNorm1d(256, eps=1e-05, momentum=0.1, affine=True, track_running_stats=True)
            )
            (norm2): Norm(
              (norm): BatchNorm1d(256, eps=1e-05, momentum=0.1, affine=True, track_running_stats=True)
            )
          )
          (linear1): Linear(in_features=256, out_features=1024, bias=True)
          (dropout): Dropout(p=0.0, inplace=False)
          (linear2): Linear(in_features=1024, out_features=256, bias=True)
          (norm1): LayerNorm((256,), eps=1e-05, elementwise_affine=True)
          (norm2): LayerNorm((256,), eps=1e-05, elementwise_affine=True)
          (dropout1): Dropout(p=0.0, inplace=False)
          (dropout2): Dropout(p=0.0, inplace=False)
        )
        (3): GraphTransformerEncoderLayer(
          (self_attn): GraphSelfAttention(
            (attention_0): GraphAttentionLayer(
              (leakyrelu): LeakyReLU(negative_slope=0.1)
            )
            (attention_1): GraphAttentionLayer(
              (leakyrelu): LeakyReLU(negative_slope=0.1)
            )
            (attention_2): GraphAttentionLayer(
              (leakyrelu): LeakyReLU(negative_slope=0.1)
            )
            (attention_3): GraphAttentionLayer(
              (leakyrelu): LeakyReLU(negative_slope=0.1)
            )
            (linear): Linear(in_features=256, out_features=256, bias=True)
            (graph_self_attn): MultiheadAttention(
              (out_proj): Linear(in_features=256, out_features=256, bias=True)
            )
            (norm1): Norm(
              (norm): BatchNorm1d(256, eps=1e-05, momentum=0.1, affine=True, track_running_stats=True)
            )
            (norm2): Norm(
              (norm): BatchNorm1d(256, eps=1e-05, momentum=0.1, affine=True, track_running_stats=True)
            )
          )
          (linear1): Linear(in_features=256, out_features=1024, bias=True)
          (dropout): Dropout(p=0.0, inplace=False)
          (linear2): Linear(in_features=1024, out_features=256, bias=True)
          (norm1): LayerNorm((256,), eps=1e-05, elementwise_affine=True)
          (norm2): LayerNorm((256,), eps=1e-05, elementwise_affine=True)
          (dropout1): Dropout(p=0.0, inplace=False)
          (dropout2): Dropout(p=0.0, inplace=False)
        )
      )
    )
    (decoder): GraphTransformerDecoder(
      (layers): ModuleList(
        (0): GraphTransformerDecoderLayer(
          (self_attn): GraphSelfAttention(
            (attention_0): GraphAttentionLayer(
              (leakyrelu): LeakyReLU(negative_slope=0.1)
            )
            (attention_1): GraphAttentionLayer(
              (leakyrelu): LeakyReLU(negative_slope=0.1)
            )
            (attention_2): GraphAttentionLayer(
              (leakyrelu): LeakyReLU(negative_slope=0.1)
            )
            (attention_3): GraphAttentionLayer(
              (leakyrelu): LeakyReLU(negative_slope=0.1)
            )
            (linear): Linear(in_features=256, out_features=256, bias=True)
            (graph_self_attn): MultiheadAttention(
              (out_proj): Linear(in_features=256, out_features=256, bias=True)
            )
            (norm1): Norm(
              (norm): BatchNorm1d(256, eps=1e-05, momentum=0.1, affine=True, track_running_stats=True)
            )
            (norm2): Norm(
              (norm): BatchNorm1d(256, eps=1e-05, momentum=0.1, affine=True, track_running_stats=True)
            )
          )
          (multihead_attn): GraphEncoderDecoderAttention(
            (attention_0): GraphEncoderDecoderAttentionLayer(
              (leakyrelu): LeakyReLU(negative_slope=0.1)
            )
            (attention_1): GraphEncoderDecoderAttentionLayer(
              (leakyrelu): LeakyReLU(negative_slope=0.1)
            )
            (attention_2): GraphEncoderDecoderAttentionLayer(
              (leakyrelu): LeakyReLU(negative_slope=0.1)
            )
            (attention_3): GraphEncoderDecoderAttentionLayer(
              (leakyrelu): LeakyReLU(negative_slope=0.1)
            )
            (linear): Linear(in_features=256, out_features=256, bias=True)
            (norm1): Norm(
              (norm): BatchNorm1d(256, eps=1e-05, momentum=0.1, affine=True, track_running_stats=True)
            )
            (norm2): Norm(
              (norm): BatchNorm1d(256, eps=1e-05, momentum=0.1, affine=True, track_running_stats=True)
            )
            (graph_multihead_attn): MultiheadAttention(
              (out_proj): Linear(in_features=256, out_features=256, bias=True)
            )
          )
          (linear1): Linear(in_features=256, out_features=1024, bias=True)
          (dropout): Dropout(p=0.0, inplace=False)
          (linear2): Linear(in_features=1024, out_features=256, bias=True)
          (norm1): LayerNorm((256,), eps=1e-05, elementwise_affine=True)
          (norm2): LayerNorm((256,), eps=1e-05, elementwise_affine=True)
          (norm3): LayerNorm((256,), eps=1e-05, elementwise_affine=True)
          (dropout1): Dropout(p=0.0, inplace=False)
          (dropout2): Dropout(p=0.0, inplace=False)
          (dropout3): Dropout(p=0.0, inplace=False)
        )
        (1): GraphTransformerDecoderLayer(
          (self_attn): GraphSelfAttention(
            (attention_0): GraphAttentionLayer(
              (leakyrelu): LeakyReLU(negative_slope=0.1)
            )
            (attention_1): GraphAttentionLayer(
              (leakyrelu): LeakyReLU(negative_slope=0.1)
            )
            (attention_2): GraphAttentionLayer(
              (leakyrelu): LeakyReLU(negative_slope=0.1)
            )
            (attention_3): GraphAttentionLayer(
              (leakyrelu): LeakyReLU(negative_slope=0.1)
            )
            (linear): Linear(in_features=256, out_features=256, bias=True)
            (graph_self_attn): MultiheadAttention(
              (out_proj): Linear(in_features=256, out_features=256, bias=True)
            )
            (norm1): Norm(
              (norm): BatchNorm1d(256, eps=1e-05, momentum=0.1, affine=True, track_running_stats=True)
            )
            (norm2): Norm(
              (norm): BatchNorm1d(256, eps=1e-05, momentum=0.1, affine=True, track_running_stats=True)
            )
          )
          (multihead_attn): GraphEncoderDecoderAttention(
            (attention_0): GraphEncoderDecoderAttentionLayer(
              (leakyrelu): LeakyReLU(negative_slope=0.1)
            )
            (attention_1): GraphEncoderDecoderAttentionLayer(
              (leakyrelu): LeakyReLU(negative_slope=0.1)
            )
            (attention_2): GraphEncoderDecoderAttentionLayer(
              (leakyrelu): LeakyReLU(negative_slope=0.1)
            )
            (attention_3): GraphEncoderDecoderAttentionLayer(
              (leakyrelu): LeakyReLU(negative_slope=0.1)
            )
            (linear): Linear(in_features=256, out_features=256, bias=True)
            (norm1): Norm(
              (norm): BatchNorm1d(256, eps=1e-05, momentum=0.1, affine=True, track_running_stats=True)
            )
            (norm2): Norm(
              (norm): BatchNorm1d(256, eps=1e-05, momentum=0.1, affine=True, track_running_stats=True)
            )
            (graph_multihead_attn): MultiheadAttention(
              (out_proj): Linear(in_features=256, out_features=256, bias=True)
            )
          )
          (linear1): Linear(in_features=256, out_features=1024, bias=True)
          (dropout): Dropout(p=0.0, inplace=False)
          (linear2): Linear(in_features=1024, out_features=256, bias=True)
          (norm1): LayerNorm((256,), eps=1e-05, elementwise_affine=True)
          (norm2): LayerNorm((256,), eps=1e-05, elementwise_affine=True)
          (norm3): LayerNorm((256,), eps=1e-05, elementwise_affine=True)
          (dropout1): Dropout(p=0.0, inplace=False)
          (dropout2): Dropout(p=0.0, inplace=False)
          (dropout3): Dropout(p=0.0, inplace=False)
        )
        (2): GraphTransformerDecoderLayer(
          (self_attn): GraphSelfAttention(
            (attention_0): GraphAttentionLayer(
              (leakyrelu): LeakyReLU(negative_slope=0.1)
            )
            (attention_1): GraphAttentionLayer(
              (leakyrelu): LeakyReLU(negative_slope=0.1)
            )
            (attention_2): GraphAttentionLayer(
              (leakyrelu): LeakyReLU(negative_slope=0.1)
            )
            (attention_3): GraphAttentionLayer(
              (leakyrelu): LeakyReLU(negative_slope=0.1)
            )
            (linear): Linear(in_features=256, out_features=256, bias=True)
            (graph_self_attn): MultiheadAttention(
              (out_proj): Linear(in_features=256, out_features=256, bias=True)
            )
            (norm1): Norm(
              (norm): BatchNorm1d(256, eps=1e-05, momentum=0.1, affine=True, track_running_stats=True)
            )
            (norm2): Norm(
              (norm): BatchNorm1d(256, eps=1e-05, momentum=0.1, affine=True, track_running_stats=True)
            )
          )
          (multihead_attn): GraphEncoderDecoderAttention(
            (attention_0): GraphEncoderDecoderAttentionLayer(
              (leakyrelu): LeakyReLU(negative_slope=0.1)
            )
            (attention_1): GraphEncoderDecoderAttentionLayer(
              (leakyrelu): LeakyReLU(negative_slope=0.1)
            )
            (attention_2): GraphEncoderDecoderAttentionLayer(
              (leakyrelu): LeakyReLU(negative_slope=0.1)
            )
            (attention_3): GraphEncoderDecoderAttentionLayer(
              (leakyrelu): LeakyReLU(negative_slope=0.1)
            )
            (linear): Linear(in_features=256, out_features=256, bias=True)
            (norm1): Norm(
              (norm): BatchNorm1d(256, eps=1e-05, momentum=0.1, affine=True, track_running_stats=True)
            )
            (norm2): Norm(
              (norm): BatchNorm1d(256, eps=1e-05, momentum=0.1, affine=True, track_running_stats=True)
            )
            (graph_multihead_attn): MultiheadAttention(
              (out_proj): Linear(in_features=256, out_features=256, bias=True)
            )
          )
          (linear1): Linear(in_features=256, out_features=1024, bias=True)
          (dropout): Dropout(p=0.0, inplace=False)
          (linear2): Linear(in_features=1024, out_features=256, bias=True)
          (norm1): LayerNorm((256,), eps=1e-05, elementwise_affine=True)
          (norm2): LayerNorm((256,), eps=1e-05, elementwise_affine=True)
          (norm3): LayerNorm((256,), eps=1e-05, elementwise_affine=True)
          (dropout1): Dropout(p=0.0, inplace=False)
          (dropout2): Dropout(p=0.0, inplace=False)
          (dropout3): Dropout(p=0.0, inplace=False)
        )
        (3): GraphTransformerDecoderLayer(
          (self_attn): GraphSelfAttention(
            (attention_0): GraphAttentionLayer(
              (leakyrelu): LeakyReLU(negative_slope=0.1)
            )
            (attention_1): GraphAttentionLayer(
              (leakyrelu): LeakyReLU(negative_slope=0.1)
            )
            (attention_2): GraphAttentionLayer(
              (leakyrelu): LeakyReLU(negative_slope=0.1)
            )
            (attention_3): GraphAttentionLayer(
              (leakyrelu): LeakyReLU(negative_slope=0.1)
            )
            (linear): Linear(in_features=256, out_features=256, bias=True)
            (graph_self_attn): MultiheadAttention(
              (out_proj): Linear(in_features=256, out_features=256, bias=True)
            )
            (norm1): Norm(
              (norm): BatchNorm1d(256, eps=1e-05, momentum=0.1, affine=True, track_running_stats=True)
            )
            (norm2): Norm(
              (norm): BatchNorm1d(256, eps=1e-05, momentum=0.1, affine=True, track_running_stats=True)
            )
          )
          (multihead_attn): GraphEncoderDecoderAttention(
            (attention_0): GraphEncoderDecoderAttentionLayer(
              (leakyrelu): LeakyReLU(negative_slope=0.1)
            )
            (attention_1): GraphEncoderDecoderAttentionLayer(
              (leakyrelu): LeakyReLU(negative_slope=0.1)
            )
            (attention_2): GraphEncoderDecoderAttentionLayer(
              (leakyrelu): LeakyReLU(negative_slope=0.1)
            )
            (attention_3): GraphEncoderDecoderAttentionLayer(
              (leakyrelu): LeakyReLU(negative_slope=0.1)
            )
            (linear): Linear(in_features=256, out_features=256, bias=True)
            (norm1): Norm(
              (norm): BatchNorm1d(256, eps=1e-05, momentum=0.1, affine=True, track_running_stats=True)
            )
            (norm2): Norm(
              (norm): BatchNorm1d(256, eps=1e-05, momentum=0.1, affine=True, track_running_stats=True)
            )
            (graph_multihead_attn): MultiheadAttention(
              (out_proj): Linear(in_features=256, out_features=256, bias=True)
            )
          )
          (linear1): Linear(in_features=256, out_features=1024, bias=True)
          (dropout): Dropout(p=0.0, inplace=False)
          (linear2): Linear(in_features=1024, out_features=256, bias=True)
          (norm1): LayerNorm((256,), eps=1e-05, elementwise_affine=True)
          (norm2): LayerNorm((256,), eps=1e-05, elementwise_affine=True)
          (norm3): LayerNorm((256,), eps=1e-05, elementwise_affine=True)
          (dropout1): Dropout(p=0.0, inplace=False)
          (dropout2): Dropout(p=0.0, inplace=False)
          (dropout3): Dropout(p=0.0, inplace=False)
        )
      )
      (norm): LayerNorm((256,), eps=1e-05, elementwise_affine=True)
    )
  )
  (joiner): Joiner(
    (0): PositionEmbeddingLearned(
      (row_embed): Embedding(512, 256)
    )
  )
  (query_embed): Embedding(500, 256)
  (class_embed): Linear(in_features=256, out_features=21, bias=True)
  (segments_embed): MLP(
    (layers): ModuleList(
      (0): Linear(in_features=256, out_features=256, bias=True)
      (1): Linear(in_features=256, out_features=256, bias=True)
      (2): Linear(in_features=256, out_features=2, bias=True)
    )
  )
  (input_proj): Conv1d(2048, 256, kernel_size=(1,), stride=(1,))
)
number of params: 10150935
Traceback (most recent call last):
  File "src/main.py", line 204, in <module>
    main(args)
  File "src/main.py", line 138, in main
    sampler_train = torch.utils.data.RandomSampler(dataset_train)
  File "/localhome/aabdujyo/anaconda3/envs/agt_env/lib/python3.8/site-packages/torch/utils/data/sampler.py", line 93, in __init__
…
